checkpoint_0_0.pth (torch, 81153 bytes, 11 tensors)

actor.0.weight f4 [64, 70]
-0.054680977 0.19445868 0.0013150399 -0.027460245 -0.25940117 0.0037582142 0.1511015 0.09858772
0.24299422 0.23176199 0.21768817 0.043645453 -0.09158372 0.18335804 0.088106334 -0.06659166
-0.27853972 -0.121937856 0.004642996 -0.08464989 -0.06446036 -0.11132584 0.05755995 0.39706513
0.05964533 0.27583808 -0.18277334 -0.054444004 -0.100747645 0.008217169 0.01347711 -0.17869687
0.10345567 -0.18397243 -0.007531859 0.50601125 0.06480397 0.15384929 -0.045028802 0.049663994
0.10760334 -0.010450025 0.016110828 -0.20310222 -0.0057921447 0.22966725 -0.01949851 0.2848619
-0.0188053 -0.23608029 0.057661556 0.2942847 -0.20581622 -0.24133314 0.21205845 0.17133127
-0.08583114 0.21957676 -0.135973 0.25430465 0.014755772 0.04361608 0.04584167 -0.18171124
0.005634854 0.12696442 0.21623664 -0.1073008 0.10003268 -0.03883737 0.010926261 0.21574733
0.07429597 -0.029406974 0.07182897 -0.032143883 0.17804442 -0.049889784 0.18811981 0.24760851
0.040248297 0.3225355 0.0113692265 -0.11139534 -0.062137738 -0.08273117 0.11273822 -0.10609071
-0.0719272 0.013975613 0.08940455 0.27742913 0.046867654 0.23349376 -0.1784734 0.116270825
-0.08757363 -0.23554982 0.034614522 -0.04242343 0.029241616 0.099767685 0.20731685 -0.20365913
-0.13318917 0.15401833 0.005382147 0.21085872 -0.043097213 -0.017680764 -0.19821978 -0.1252669
-0.07561326 0.034615833 -0.022978013 0.1945951 0.12703443 0.13603893 0.027008042 0.28162596
0.11286869 0.20676947 -0.104604706 -0.15983528 0.13100779 -0.119655594 -0.1433316 0.0974856
0.13014378 0.020727549 -0.13252796 0.012259866 0.15055582 -0.18763937 -0.24726555 0.098948725
0.25815937 -0.22151981 0.2522568 0.18211415 0.13090242 0.3096265 -0.14877681 -0.016224563
-0.15228006 0.18003716 0.039373133 0.06402714 0.19772197 -0.024682516 0.06268231 0.114076085
0.02937285 -0.01214351 -0.12686403 0.11372062 0.01995633 0.0012864219 0.03836628 -0.20446195
-0.0042626965 -0.106581025 -0.051829387 0.27957818 0.099513255 0.162416 -0.1925896 0.12120512
0.090456806 0.22211556 0.15255558 0.34617054 -0.12334757 -0.3161823 0.0132360775 -0.24856207
-0.005808738 0.26722205 0.19072546 -0.0027617512 -0.08200367 0.014854241 -0.12642734 -0.2542745
0.0011660358 -0.56817645 -0.1693248 0.19049133 -0.06909118 -0.03935118 0.13157138 -0.20288418
-0.18616048 -0.09262254 -0.030401949 -0.43934032 -0.070474364 0.27239665 0.004864172 -0.26681554
-0.23913588 0.021850804 0.062760726 -0.0062383004 -0.20560758 -0.39744374 -0.13421063 0.14530219
0.0994819 -0.1370442 0.13812478 0.115137614 -0.060411103 -0.23226154 -0.10652937 0.0027870627
0.028339352 -0.12354591 0.18025099 0.029690716 0.023132956 0.011259511 -0.20523009 0.23874082
-0.10115398 -0.0599154 0.17500293 0.29998565 -0.1354377 -0.17721117 0.0137057165 -0.041722402
0.021342147 0.26570955 -0.0721574 -0.0966444 -0.024668802 0.19036597 0.05277288 -0.10431301
-0.008791427 0.13857661 -0.0067639314 -0.13380401 -0.06950617 0.40033588 -0.009062535 -0.20722005
0.09914262 -0.1939049 -0.23215972 -0.31770217 0.15739077 0.19838327 0.088931575 0.3676882
00000000: 29f9 5fbd 2d20 473e 6b5d ac3a 4ff4 e0bc
00000010: 3bd0 84be 5f4c 763b 5aba 1a3e 5ce8 c93d
00000020: 7ad3 783e 0453 6d3e a6e9 5e3e 93c5 323d
00000030: 3f90 bbbd 36c2 3b3e 1871 b43d 3561 88bd
00000040: c29c 8ebe 8eba f9bd 4624 983b ec5c adbd
00000050: cb03 84bd cdfe e3bd fbc3 6b3d 1f4c cb3e
00000060: a94e 743d a63a 8d3e ef28 3bbe ad00 5fbd
00000070: c854 cebd 4ea1 063c 19cf 5c3c 50fc 36be
00000080: 91e0 d33d 4563 3cbe d0cd f6bb f489 013f
00000090: f2b7 843d ab8a 1d3e 1f70 38bd 796c 4b3d
000000a0: 245f dc3d 9536 2bbc dbfa 833c 07fa 4fbe
000000b0: 08cc bdbb e42d 6b3e 57bb 9fbc 6bd9 913e
000000c0: 930d 9abc 08bf 71be 862e 6c3d 7cac 963e
000000d0: 7dc1 52be 0920 77be da25 593e 7771 2f3e
000000e0: 3dc8 afbd bbd8 603e 823c 0bbe 3834 823e
000000f0: 32c2 713c c6a6 323d 7ac4 3b3d 8312 3abe
00000100: 95a4 b83b f602 023e 236d 5d3e 86c0 dbbd
00000110: efdd cc3d ef13 1fbd 0f04 333c deec 5c3e
00000120: 7c28 983d e5e6 f0bc 111b 933d 4ea9 03bd
00000130: 4751 363e 3b59 4cbd 7ba2 403e 168d 7d3e
00000140: 66db 243d 6023 a53e fe45 3a3c 3d23 e4bd
00000150: 2484 7ebd f66e a9bd 4ce3 e63d 1646 d9bd
00000160: 914e 93bd f8f9 643c bc19 b73d 310b 8e3e
00000170: 4cf8 3f3d fd18 6f3e bbc1 36be 661f ee3d
00000180: ce59 b3bd f933 71be f5c7 0d3d 31c4 2dbd
00000190: 1d8c ef3c 0053 cc3d de4a 543e 058c 50be
000001a0: be62 08be fbb6 1d3e b95c b03b 59eb 573e
000001b0: b486 30bd 40d7 90bc 20fa 4abe f745 00be
000001c0: 20db 9abd 55c9 0d3d 633c bcbc f043 473e
000001d0: 5015 023e ca4d 0b3e f83f dd3c 4731 903e
000001e0: b327 e73d 60bb 533e fe3a d6bd dcab 23be
000001f0: e826 063e fe0d f5bd 85c5 12be 88a6 c73d
00000200: 6944 053e d2cc a93c 69b5 07be 9bdd 483c
00000210: 4e2b 1a3e 8924 40be 2e33 7dbe a1a5 ca3d
00000220: 772d 843e 17d6 62be ce27 813e 227c 3a3e
00000230: 490b 063e 5d87 9e3e f358 18be 60e9 84bc
00000240: 4eef 1bbe a95b 383e b945 213d a920 833d
00000250: a177 4a3e fd32 cabc 955f 803d b9a0 e93d
00000260: 559f f03c 93f5 46bc a5e8 01be 5be6 e83d
00000270: 757b a33c 289d a83a f625 1d3d 795e 51be
00000280: 17ae 8bbb 2747 dabd 0d4b 54bd df24 8f3e
00000290: 9bcd cb3d 6150 263e 3536 45be 643a f83d
000002a0: 6b41 b93d 4372 633e 8837 1c3e 443d b13e
000002b0: a79d fcbd a5e2 a1be 22dc 583c 0e87 7ebe
000002c0: 3a57 bebb 54d1 883e 894d 433e 7ffe 34bb
000002d0: 8af1 a7bd 345f 733c 2b76 01be 4430 82be
000002e0: abd5 983a 0374 11bf 7b63 2dbe 2910 433e
000002f0: ad7f 8dbd b42e 21bd a6ba 063e dfc0 4fbe
00000300: daa0 3ebe e3b0 bdbd 820d f9bc 37f1 e0be
00000310: dd54 90bd 9377 8b3e a263 9f3b 0c9c 88be
00000320: 09e0 74be 7500 b33c b288 803d a86a ccbb
00000330: cb8a 52be bf7d cbbe 836e 09be 19ca 143e
00000340: 2bbd cb3d 5155 0cbe 9570 0d3e 45cd eb3d
00000350: a271 77bd f8d5 6dbe 122c dabd 27a7 363b
00000360: ee27 e83c a305 fdbd b793 383e f239 f33c
00000370: 5381 bd3c d079 383c d627 52be 7978 743e
00000380: d129 cfbd da69 75bd f833 333e b897 993e
00000390: 2eb0 0abe d876 35be f18d 603c 1ce5 2abd
000003a0: bad5 ae3c 150b 883e 42c7 93bd 80ed c5bd
000003b0: 3a16 cabc 4cef 423e 6028 583d 0fa2 d5bd
000003c0: eb09 10bc 07e7 0d3e f8a3 ddbb eb03 09be
000003d0: 4059 8ebd d3f8 cc3e 077b 14bc 7e31 54be
000003e0: 490b cb3d 028f 46be 47bb 6dbe dca9 a2be
000003f0: 0c2b 213e fc24 4b3e c221 b63d a141 bc3e

actor.0.bias f4 [64]
0.10285593 0.022575105 -0.0487114 0.010002025 0.11109375 -0.07374697 0.14513299 -0.051476166
-0.07556015 0.059700813 -0.06626246 -0.052008037 -0.07235843 0.0138613945 -0.016740361 0.011761251
-0.07149839 0.1505844 0.053699683 -0.12283707 -0.019421961 0.09434251 -0.020523692 -0.07609011
-0.06329047 -0.08977573 -0.037457414 0.08228739 0.10933553 0.071528085 -0.009660432 -0.12256918
-0.08422552 -0.08000262 -0.041296955 0.10318693 0.024190985 0.08528347 -0.045530263 -0.086039536
-0.084536016 -0.08472688 0.07656365 0.077272765 0.111943886 0.12788905 0.08736037 0.105027996
0.015138161 -0.12681806 0.09531816 0.118424505 0.12744218 -0.03861574 -0.05540955 -0.068868384
0.030248865 0.04910986 0.05076949 0.048460495 -0.028401086 -0.105948634 -0.018321244 -0.0008926609
00000000: 21a6 d23d 6def b83c 9b85 47bd 89df 233c
00000010: 1f85 e33d a708 97bd be9d 143e acd8 52bd
00000020: 48bf 9abd d788 743d 9db4 87bd 6106 55bd
00000030: a830 94bd e71a 633c 1523 89bc 43b2 403c
00000040: bf6d 92bd cc32 1a3e 33f4 5b3d 0092 fbbd
00000050: ce1a 9fbc a536 c13d 4d21 a8bc 22d5 9bbd
00000060: 6f9e 81bd 57dc b7bd f26c 19bd 4b86 a83d
00000070: 4eeb df3d 517d 923d ca46 1ebc 8d05 fbbd
00000080: 6e7e acbd 6ad8 a3bd ff26 29bd ab53 d33d
00000090: 2c2c c63c 1aa9 ae3d f17d 3abd 7f35 b0bd
000000a0: 3821 adbd 4985 adbd 67cd 9c3d 2f41 9e3d
000000b0: d642 e53d 59f5 023e fee9 b23d eb18 d73d
000000c0: 0d06 783c 98dc 01be 2b36 c33d 8c88 f23d
000000d0: 3480 023e 8a2b 1ebd 20f5 62bd de0a 8dbd
000000e0: 78cc f73c 6c27 493d abf3 4f3d 837e 463d
000000f0: 65a9 e8bc 99fb d8bd 6f16 96bc 7501 6aba

actor.2.weight f4 [64, 64]
-0.0042576655 0.18833874 0.10881366 -0.1772137 -0.10126411 0.18351792 0.101357624 -0.10223737
0.05001872 -0.007680617 -0.005193264 -0.13703604 -0.1653377 0.05175422 -0.14284003 0.09375393
0.058845382 0.014926275 -0.02884484 0.15045752 -0.073970154 0.09575245 -0.0011958174 -0.097487345
-0.23042694 -0.10608281 -0.037068766 0.06076923 0.013684231 -0.005374725 0.15731493 0.004100273
-0.023037715 -0.08757707 -0.0092219785 -0.06284158 0.11111152 0.0006179651 -0.015926609 -0.10346106
-0.17567445 -0.016522208 -0.16502343 -0.17445011 -0.11805825 -0.12371493 0.05230255 -0.03249535
0.15300977 0.055322222 0.13923132 0.06972707 0.09680465 -0.047174975 0.14365536 0.03091197
0.05818852 -0.0742406 -0.04618162 0.08837314 0.10651334 0.08993185 -0.09277667 0.1004122
0.024239814 -0.06840484 -0.044904098 -0.027202347 0.11131236 0.076853804 -0.1182507 -0.0532321
0.118371435 0.034818817 0.1288513 0.21412186 -0.1029397 -0.02874236 0.09683388 0.0086359875
-0.002295683 0.017868979 -0.15202108 0.11448304 -0.029324146 0.01370306 -0.02195423 0.0050198855
0.15726313 0.042426124 -0.11963803 -0.02449375 0.03603616 0.059469867 0.08271854 -0.012833575
0.12908131 0.17320025 -0.025180593 0.122073635 0.077979796 0.23086019 -0.051395975 0.045378238
-0.053653866 0.011040498 -0.027259652 -0.1818022 -0.10689193 -0.0029308258 -0.079952836 0.027188955
0.015226551 -0.056192648 0.03548355 -0.14179063 0.1156699 0.07938123 -0.10322144 -0.08885189
0.079961024 0.042648952 -0.14114664 -0.12917817 -0.13290533 -0.022744944 -0.018808808 0.01044439
-0.017968023 0.052521847 0.12877534 -0.05402185 0.0045502647 -0.09557005 0.15065645 0.101288095
0.07384659 -0.091673285 0.0019852691 -0.15575309 0.05135261 -0.040296115 0.03220894 -0.0070073972
-0.023607165 0.06590247 0.102305636 0.097005054 0.015185363 -0.048774555 -0.0205393 0.070493795
-0.07198957 0.004889278 -0.09403524 0.045382813 -0.010183322 -0.19142492 0.16014133 -0.095382474
-0.12873033 0.08523386 -0.079720564 -0.20229223 0.13209154 0.10691614 0.12052279 0.018460179
-0.012098631 0.05213116 0.015596498 0.06456553 0.075894654 0.044117592 0.032716345 0.17106503
-0.15467621 -0.13243079 -0.113098346 0.11204622 0.07415847 -0.07283881 0.10328538 0.10528159
0.083609 0.022988694 -0.13839266 0.09582987 -0.06765814 0.1379643 0.03624163 -0.035962693
-0.002602703 -0.023436002 0.14442301 -0.11083008 -0.0637326 0.090739824 -0.15949865 -0.17363742
0.0590271 -0.1361765 -0.13354523 -0.08047681 0.11377443 0.042501554 0.10686973 0.1932514
0.104990296 0.06952489 -0.07663438 0.047313794 -0.121856764 0.009334537 0.07051851 -0.09589591
-0.15114735 0.046254598 -0.039394498 -0.14132936 -0.2121623 0.013692337 0.059574295 0.00025007248
-0.04350322 0.13108979 0.03559719 0.09105839 0.05653666 -0.0963685 0.16344708 -0.06384115
0.053451534 0.009293323 -0.021893045 0.07113778 -0.0049440917 -0.032384954 0.13130648 0.104217246
-0.045230847 0.19149823 -0.021934174 -0.06746754 0.14709784 0.045692723 -0.19342548 0.0024929824
0.09679436 -0.031195192 -0.039439682 -0.13056748 -0.007251877 -0.17896119 -0.013365618 -0.115430996
00000000: e383 8bbb dfdb 403e b2d9 de3d 8277 35be
00000010: 8f63 cfbd 1fec 3b3e 9694 cf3d d461 d1bd
00000020: 6ee0 4c3d afad fbbb 422c aabb 2d53 0cbe
00000030: 494e 29be 3cfc 533d a844 12be 0f02 c03d
00000040: db07 713d 568d 743c 044c ecbc 8911 1a3e
00000050: aa7d 97bd dc19 c43d f9bc 9cba 72a7 c7bd
00000060: 0af5 6bbe f241 d9bd 6bd5 17bd 28e9 783d
00000070: d333 603c 761e b0bb 2a17 213e 955b 863b
00000080: 97b9 bcbc 9b5b b3bd c817 17bc 16b3 80bd
00000090: 708e e33d f0fe 213a 8578 82bc 64e3 d3bd
000000a0: 01e4 33be 9559 87bc e7fb 28be 0da3 32be
000000b0: 86c8 f1bd 415e fdbd 333b 563d d819 05bd
000000c0: 98ae 1c3e 8e99 623d a892 0e3e 11cd 8e3d
000000d0: 8441 c63d 8c3a 41bd 641a 133e 1a3b fd3c
000000e0: 1657 6e3d 750b 98bd f028 3dbd fafc b43d
000000f0: aa23 da3d 312e b83d b201 bebd e9a4 cd3d
00000100: 9392 c63c d617 8cbd 5ced 37bd 75d7 debc
00000110: bcf7 e33d 8765 9d3d 6c2d f2bd e709 5abd
00000120: b96c f23d 2d9e 0e3d 98f1 033e c342 5b3e
00000130: 0dd2 d2bd 1975 ebbc d750 c63d f57d 0d3c
00000140: 2b73 16bb f761 923c 6aab 1bbe 1676 ea3d
00000150: 3139 f0bc cd82 603c 5bd9 b3bc da7d a43b
00000160: 9609 213e 04c7 2d3d c904 f5bd 1ea7 c8bc
00000170: a79a 133d ad96 733d 5768 a93d ea43 52bc
00000180: e42d 043e 685b 313e 8847 cebc be01 fa3d
00000190: dfb3 9f3d 9d66 6c3e 9684 52bd 88de 393d
000001a0: 28c4 5bbd 34e3 343c a24f dfbc 5b2a 3abe
000001b0: 28ea dabd 1913 40bb 50be a3bd 5fbb de3c
000001c0: c978 793c 432a 66bd 3357 113d 9031 11be
000001d0: 57e4 ec3d a092 a23d c365 d3bd fbf7 b5bd
000001e0: 9bc2 a33d abb0 2e3d bf88 10be 4847 04be
000001f0: 5618 08be 9b53 babc ee14 9abc f21e 2b3c
00000200: ad31 93bc 2621 573d afdd 033e 0446 5dbd
00000210: 631a 953b 3bba c3bd af45 1a3e 2270 cf3d
00000220: e23c 973d 34bf bbbd 4a1b 023b bd7d 1fbe
00000230: 1d57 523d 8a0d 25bd 85ed 033d 4f9e e5bb
00000240: d063 c1bc e0f7 863d 9e85 d13d 96aa c63d
00000250: 07cc 783c d4c7 47bd 0942 a8bc 0d5f 903d
00000260: 456f 93bd 3d36 a03b 8c95 c0bd 54e3 393d
00000270: f3d7 26bc e504 44be 17fc 233e e357 c3bd
00000280: e2d1 03be 178f ae3d 8944 a3bd b225 4fbe
00000290: 0143 073e d9f6 da3d a7d4 f63d cd39 973c
000002a0: 5639 46bc 7c87 553d 7488 7f3c ef3a 843d
000002b0: a86e 9b3d a6b4 343d 9301 063d ac2b 2f3e
000002c0: 7163 1ebe f09b 07be 1ba0 e7bd 7d78 e53d
000002d0: 65e0 973d 842c 95bd 4987 d33d e09d d73d
000002e0: 323b ab3d c952 bc3c ceb6 0dbe 7342 c43d
000002f0: 5a90 8abd 8346 0d3e 1a72 143d 9e4d 13bd
00000300: 1c92 2abb dcfc bfbc a0e3 133e e2fa e2bd
00000310: 3d86 82bd cdd5 b93d 9d53 23be 02ce 31be
00000320: 67c6 713d da71 0bbe 15c0 08be 07d1 a4bd
00000330: 9102 e93d 1c16 2e3d 84de da3d b2e3 453e
00000340: 2705 d73d 1163 8e3d 7cf2 9cbd 1ccc 413d
00000350: 0a90 f9bd e3ef 183c 026c 903d 1365 c4bd
00000360: 5fc6 1abe 7675 3d3d 205c 21bd a5b8 10be
00000370: 1341 59be d355 603c 2d04 743d 291c 8339
00000380: 6f30 32bd 673c 063e 5cce 113d d27c ba3d
00000390: fc92 673d d95c c5bd ac5e 273e 26bf 82bd
000003a0: ffef 5a3d 0643 183c 0b59 b3bc afb0 913d
000003b0: 0c02 a2bb 16a6 04bd 3575 063e da6f d53d
000003c0: fb43 39bd 1d18 443e 4caf b3bc 6c2c 8abd
000003d0: d1a0 163e 4b28 3b3d 5411 46be 4e61 233b
000003e0: 1f3c c63d 0f8d ffbc 818b 21bd 7bb3 05be
000003f0: 27a1 edbb 9a41 37be 77fb 5abc 1667 ecbd

actor.2.bias f4 [64]
0.09773591 -0.12260582 0.05363586 0.015699638 0.08974614 0.047735598 0.034781188 0.07587025
0.019347375 0.008985325 0.11352028 -0.034201257 0.047151387 -0.011602746 0.0762414 0.010271911
0.09954217 0.12436981 0.07131295 -0.0037046997 -0.03484944 0.022408728 -0.024782104 -0.045805532
0.053179324 0.045968972 0.026417818 0.02570572 0.09793016 -0.104296125 -0.06907969 -0.11731653
0.008457889 0.0834553 0.027681611 0.019095438 -0.05377915 -0.087052464 0.048380073 -0.03272495
0.06175211 -0.022378065 -0.055188227 0.044970457 0.12849002 -0.055743933 0.043592453 -0.08393332
0.083009206 -0.043544713 -0.07377052 -0.0126898 0.10162301 -0.063727655 -0.047258787 -0.016599737
0.10001286 -0.05562025 -0.002645993 -0.12903197 0.0033573052 -0.05588207 0.068710744 0.049873166
00000000: c429 c83d c318 fbbd 47b1 5b3d 879c 803c
00000010: d3cc b73d 6786 433d b876 0e3d dd61 9b3d
00000020: 637e 9e3c 2f37 133c 527d e83d 9e16 0cbd
00000030: d021 413d 7219 3ebc 7324 9c3d 844b 283c
00000040: c4dc cb3d 99b5 fe3d 860c 923d 8cca 72bb
00000050: 49be 0ebd 8292 b73c d703 cbbc 959e 3bbd
00000060: 90d2 593d f649 3c3d 2e6a d83c cd94 d23c
00000070: 9c8f c83d 3599 d5bd a779 8dbd a643 f0bd
00000080: f592 0a3c 9dea aa3d 8cc4 e23c 096e 9c3c
00000090: 8747 5cbd 9048 b2bd 2f2a 463d 990a 06bd
000000a0: c8ef 7c3d 3452 b7bc 0d0d 62bd f132 383d
000000b0: e392 033e c053 64bd 008e 323d 3ce5 abbd
000000c0: bb00 aa3d f15b 32bd 0015 97bd e1e8 4fbc
000000d0: ba1f d03d a583 82bd 6e92 41bd 2cfc 87bc
000000e0: 8bd3 cc3d 0fd2 63bd 6568 2dbb f520 04be
000000f0: 3c06 5c3b 99e4 64bd 38b8 8c3d ce47 4c3d

actor.4.weight f4 [30, 64]
0.11363038 0.08843768 0.2106898 0.11225689 0.039406545 0.033229258 0.046803918 0.004019456
0.10342727 -0.027681677 0.060905043 0.08438413 0.030622955 -0.044871993 -0.19193509 0.017453404
-0.124721065 0.07198002 0.030934287 0.07175655 0.039074652 -0.09698811 -0.12107619 0.08050674
-0.008551793 0.07851398 0.003839477 0.12649558 -0.051691968 -0.061090514 -0.081142195 -0.005246035
-0.06362983 -0.023857508 0.014898012 0.079161696 0.05385284 0.12263037 0.3209662 -0.04700425
-0.06900896 -0.03963515 -0.06549598 -0.016987234 -0.14417179 -0.078797385 0.079308346 -0.020962162
-0.047148544 0.076664984 0.008914805 0.15742981 0.08443824 0.042361673 0.07797764 0.09424515
0.032829605 0.008210183 -0.012179653 0.02023519 0.14916202 0.07677943 0.052416384 -0.08139025
0.043590948 -0.05608475 -0.0037597239 -0.07804193 -0.123531915 0.12477273 0.16060089 -0.037010632
-0.0024892173 -0.08858662 0.023618337 -0.02244929 -0.0019167211 0.02353769 0.053576402 -0.09058108
0.02407553 -0.053615518 0.13714167 -0.025825903 -0.060352437 0.0418573 -0.021290194 0.17486331
-0.062092684 0.04406131 -0.094596595 -0.007806991 0.14140038 0.028865987 0.028748149 0.065535955
-0.102021344 0.11289465 -0.0037494015 0.0394111 -0.08640963 0.01945168 -0.1787818 0.052396346
-0.06462334 -0.051438462 -0.08809259 0.0921503 0.0020577223 0.008209356 -0.21507521 0.043111935
-0.11215355 0.13528065 0.0023712753 -0.03233528 -0.15291129 0.098749846 -0.07707816 -0.058371995
0.116176635 0.008699276 0.10934066 0.08619436 0.04398637 -0.21745102 0.025542377 0.13411586
0.079052925 0.058678444 0.03902567 0.02511035 -0.11804732 0.056682404 0.030098367 0.16675602
-0.185433 0.0040206034 -0.08764637 -0.024191858 -0.121894196 0.1432656 0.15551592 -0.11355003
0.02521089 -0.074357115 -0.08158484 0.0027733857 -0.0643428 0.051446132 -0.05601359 -0.19607086
0.024529886 0.12011655 -0.034741823 0.1138595 0.088639736 0.12974976 0.13286962 0.062130116
-0.047525037 0.102791 0.07516036 -0.062039386 -0.06371741 0.0008892662 0.12031985 0.11773424
0.099453665 -0.07848613 -0.012909813 -0.024456745 -0.031781804 0.044239942 -0.16886458 0.16894493
-0.18709803 0.024044732 -0.06154296 0.052803062 -0.045644242 -0.23186862 -0.03305263 0.15418884
-0.12498929 -0.07532802 0.10470239 0.044029765 0.0141400015 -0.022509266 -0.011952964 0.06267893
0.02490341 0.1299818 -0.044434287 0.111934826 0.13530715 -0.041215625 0.17409635 -0.008968233
0.14121173 -0.084447816 0.110177174 -0.1186824 0.028225655 -0.12800933 0.0973456 0.01936976
0.16620687 0.03171201 -0.017658705 0.13363293 -0.05115773 0.098936014 0.04672006 0.022859795
-0.043880653 -0.016861288 -0.018615391 -0.026500404 -0.032137796 0.08493145 -0.037366744 0.015800359
0.028592434 0.05663371 0.15403791 -0.15378462 -0.06667166 0.09121025 -0.022274405 0.01739784
-0.044296827 -0.0496528 -0.040912382 -0.12343428 -0.15850951 0.018507672 -0.020119602 0.100869134
0.0018518532 -0.047309753 0.007010797 0.20298395 0.05655357 -0.017498964 0.14199239 0.11705142
0.04351939 -0.04576863 0.20734747 0.14005758 0.078873634 -0.1958022 -0.06492776 -0.049999226
00000000: 0bb7 e83d d01e b53d 11bf 573e f1e6 e53d
00000010: c268 213d 671b 083d 77b5 3f3d a4b5 833b
00000020: add1 d33d afc4 e2bc 9177 793d 96d1 ac3d
00000030: fedc fa3c b2cb 37bd a28a 44be 71fa 8e3c
00000040: c26d ffbd 436a 933d e769 fd3c 19f5 923d
00000050: be0c 203d b4a1 c6bd cbf6 f7bd b8e0 a43d
00000060: d21c 0cbc f0cb a03d bc9f 7b3b 0f88 013e
00000070: f5ba 53bd 0c3a 7abd e12d a6bd eee6 abbb
00000080: 5b50 82bd d270 c3bc cb16 743c 871f a23d
00000090: cc94 5c3d a225 fb3d af55 a43e 8787 40bd
000000a0: 9254 8dbd 7858 22bd c222 86bd d028 8bbc
000000b0: c5a1 13be 8660 a1bd 6a6c a23d d7b8 abbc
000000c0: d51e 41bd 8802 9d3d 670f 123c 4835 213e
000000d0: f5ed ac3d 6f83 2d3d beb2 9f3d 9a03 c13d
000000e0: 5678 063d 0184 063c 2b8d 47bc 45c4 a53c
000000f0: eebd 183e 893e 9d3d 90b2 563d eeaf a6bd
00000100: 6c8c 323d 1fb9 65bd b365 76bb 73d4 9fbd
00000110: 4dfe fcbd d888 ff3d 8f74 243e 7698 17bd
00000120: 2322 23bb e76c b5bd 3e7b c13c 93e7 b7bc
00000130: 7d3a fbba 1dd2 c03c ee72 5b3d 9382 b9bd
00000140: 0c3a c53c f29b 5bbd de6e 0c3e d890 d3bc
00000150: 1e34 77bd 8f72 2b3d c668 aebc 5e0f 333e
00000160: e654 7ebd a279 343d dcbb c1bd cad1 ffbb
00000170: 43cb 103e 5d78 ec3c 3d81 eb3c b737 863d
00000180: 91f0 d0bd 4f35 e73d 85b8 75bb 896d 213d
00000190: 88f7 b0bd 2159 9f3c 9412 37be 8d9d 563d
000001a0: 3e59 84bd 23b1 52bd e369 b4bd 4cb9 bc3d
000001b0: dada 063b 8980 063c ad3c 5cbe 2496 303d
000001c0: c3b0 e5bd 0387 0a3e 6667 1b3b 0072 04bd
000001d0: c794 1cbe 5c3d ca3d 28db 9dbd 7917 6fbd
000001e0: 04ee ed3d 6887 0e3c ffed df3d ab86 b03d
000001f0: 0d2b 343d 7bab 5ebe 3f3e d13c ab55 093e
00000200: 80e6 a13d cf58 703d 62d9 1f3d 39b4 cd3c
00000210: cbc2 f1bd cf2b 683d da90 f63c 17c2 2a3e
00000220: 26e2 3dbe 44bf 833b f17f b3bd 012e c6bc
00000230: aaa3 f9bd 38b4 123e 913f 1f3e eb8c e8bd
00000240: 1287 ce3c 8b48 98bd f415 a7bd b1c1 353b
00000250: 28c6 83bd 2eb9 523d 826e 65bd cdc6 48be
00000260: e6f2 c83c aaff f53d 714d 0ebd 2b2f e93d
00000270: c088 b53d 1fdd 043e f90e 083e 267c 7e3d
00000280: 9da9 42bd 1684 d23d aded 993d 031d 7ebd
00000290: 467e 82bd a51d 693a 416a f63d a61e f13d
000002a0: 5dae cb3d 56bd a0bd ae83 53bc 8359 c8bc
000002b0: a32d 02bd f134 353d d6ea 2cbe e6ff 2c3e
000002c0: a096 3fbe 75f9 c43c 7914 7cbd 0648 583d
000002d0: 75f5 3abd f86e 6dbe 3262 07bd aee3 1d3e
000002e0: 63fa ffbd 9445 9abd 356e d63d 8e58 343d
000002f0: 77ab 673c 5a65 b8bc 5dd6 43bc d05d 803d
00000300: 3c02 cc3c f319 053e ba00 36bd 163e e53d
00000310: f58d 0a3e b7d1 28bd 5046 323e 7fef 12bc
00000320: cf99 103e faf2 acbd 92a4 e13d c20f f3bd
00000330: 7d39 e73c e114 03be 215d c73d 55ad 9e3c
00000340: 2232 2a3e 74e4 013d fda8 90bc 12d7 083e
00000350: c58a 51bd f79e ca3d 895d 3f3d 7744 bb3c
00000360: 33bc 33bd af20 8abc 4e7f 98bc 6017 d9bc
00000370: eca2 03bd 8af0 ad3d df0d 19bd c16f 813c
00000380: ae3a ea3c c0f8 673d 1dbc 1d3e b779 1dbe
00000390: 278b 88bd 71cc ba3d d078 b6bc ea85 8e3c
000003a0: 9770 35bd bc60 4bbd be93 27bd 1dcb fcbd
000003b0: 5150 22be 679d 973c ddd1 a4bc 7a94 ce3d
000003c0: e2b9 f23a dfc7 41bd d4ba e53b 06db 4f3e
000003d0: b7a4 673d fd59 8fbc 7466 113e a8b8 ef3d
000003e0: 6341 323d e377 3bbd e552 543e 416b 0f3e
000003f0: 8088 a13d 5f80 48be d8f8 84bd fdcb 4cbd

actor.4.bias f4 [30]
-0.07256619 -0.13544779 -0.008683785 0.053940564 -0.0074583227 0.024192639 0.022015449 -0.067686565
-0.051295485 -0.046003643 0.11176815 0.07444228 0.005054464 -0.10794857 -0.021354925 0.095565364
0.08167234 -0.06380319 0.028056132 -0.10883973 -0.06245915 -0.085108854 0.0674707 -0.037889775
0.038538437 0.09969923 0.08706013 0.002551663 -0.1346847 0.09207161
00000000: 959d 94bd d3b2 0abe 6f46 0ebc c8f0 5c3d
00000010: f264 f4bb a42f c63c be59 b43c 419f 8abd
00000020: 371b 52bd 516e 3cbd b3e6 e43d 3275 983d
00000030: eb9f a53b 2414 ddbd 86f0 aebc c6b7 c33d
00000040: d443 a73d 3fab 82bd f9d5 e53c 5de7 debd
00000050: 2ad5 7fbd 8d4d aebd 142e 8a3d 4f32 1bbd
00000060: 7bda 1d3d 1c2f cc3d 954c b23d cd39 273b
00000070: c9ea 09be 0a90 bc3d

critic.0.weight f4 [64, 70]
-0.82500005 -0.3193207 -0.21130869 -0.13731782 0.5743489 0.13455334 0.06018633 -2.3848991
-0.30897284 -0.7556497 -0.21878535 0.10693262 0.3770922 0.33498523 0.098775186 -0.2915599
-0.8287083 -0.26708877 0.087116234 0.1685652 0.13023035 -0.07132774 -0.019743614 0.15620825
-0.28701827 0.19857787 0.0642105 0.0038109974 -0.23636061 -0.2865228 -0.287481 -0.14546254
0.36167416 0.012461397 -0.059979472 0.25860488 -0.00094347686 0.10715913 0.0784433 0.26688826
0.25308314 0.013265601 0.036594287 0.018279832 0.18952528 -0.24298723 -0.5623722 -0.63697255
-0.6161935 -0.13475327 0.0005275837 -0.1365615 0.36136323 0.04863541 -0.14808773 0.10900048
0.34140626 0.34845892 0.44960412 0.32082 0.28651428 0.30464882 -0.14017141 0.14751318
0.24289827 0.0425252 -0.46955636 0.12803929 0.054811567 0.0066186665 -1.0962362 -1.6546781
-0.15001148 0.10355651 -0.99980646 -0.3986791 1.0097976 -0.45502472 -0.44752264 0.017126203
-0.23578586 0.20936915 -0.2035596 0.044299547 0.16372328 -0.04519733 -0.4800661 -0.16199
-0.09444976 -0.24205834 0.11165626 -0.08948397 0.045811348 -0.2887768 -0.05735916 0.13260753
0.008259734 -0.067351334 0.12530911 -0.275108 0.081129774 0.08618636 0.03664201 0.112104334
0.09844566 0.07796373 -0.15876995 0.023116233 -0.0015021499 0.12761755 0.046512384 0.05142597
-0.020032056 -0.027639221 -0.041572135 -0.0299626 0.2363331 0.27719596 -0.6112347 -0.0021722033
-0.51503456 -0.06774492 -0.39618647 0.048583098 0.028569644 0.12651072 -0.120799474 -0.16424458
-0.19634455 -0.3667951 -0.3540714 0.12825271 0.23973997 0.02099943 0.09716058 0.003556942
-0.10046295 0.050694175 0.012376725 0.08125854 -0.5871574 0.4551122 0.5883843 0.87430245
-0.041420046 -1.4384459 1.3714614 0.48982346 -0.3360135 0.06261202 0.21662496 -0.030945318
0.53241533 0.101546034 -0.08044841 -0.64120805 -0.32463837 -0.2802777 0.04616718 -0.015532526
-0.13983746 0.30857044 0.072311565 0.680332 0.44616467 -0.010209645 -0.074280806 0.07708111
-0.38840187 0.21729197 0.1581763 0.13356124 0.113678075 -0.26028287 -0.11222549 0.37570578
0.09052276 0.16513534 0.25991434 0.5080135 0.07658359 0.5351525 -0.032749448 -0.06077763
0.084990904 0.15810004 2.7822778 0.7497163 0.8911279 0.3339195 0.78102404 0.32663432
1.2868656 -0.034696195 0.5120603 0.15008965 -0.23733419 -0.3053085 -2.3508735 -0.2839932
-0.6556665 -0.037349552 0.143186 0.0025939292 -0.75688756 0.22230875 -0.1400719 -0.18183404
-0.22104314 0.026975768 0.62287563 -0.19984484 0.39174452 1.6746106 0.4708178 0.13105015
2.425421 -1.5654573 -0.5748444 -0.6119186 0.11395718 0.14944406 -0.2655903 -0.60335183
0.6575649 0.22924684 -0.91526926 -0.29368085 0.11967391 0.39028952 -0.79745865 -0.111487225
-0.524196 0.42144313 -0.19641419 -0.13039488 -0.0049837427 0.12337263 -0.092706874 -0.07422479
-0.29382262 -0.55986935 -0.2502336 0.3043034 -0.30371618 0.22637501 -0.10868354 0.13162455
0.08134878 0.6465946 0.5441146 -0.38530052 0.021326065 -0.054746687 -0.6562672 -0.23162057
00000000: 3433 53bf 017e a3be 4e61 58be 0b9d 0cbe
00000010: 8808 133f 5ac8 093e f185 763d 30a2 18c0
00000020: b031 9ebe 4272 41bf 4409 60be 7dff da3d
00000030: 3b12 c13e 2f83 ab3e a54a ca3d 5747 95be
00000040: 3a26 54bf dcbf 88be ff69 b23d 5b9c 2c3e
00000050: 1b5b 053e 4714 92bd 5cbd a1bc 0ef5 1f3e
00000060: 0ff4 92be ff57 4b3e cb80 833d edc1 793b
00000070: 8408 72be 1eb3 92be b630 93be 22f4 14be
00000080: 5b2d b93e e32a 4c3c 09ad 75bd dc67 843e
00000090: a953 77ba 3f76 db3d e2a6 a03d 94a5 883e
000000a0: 1d94 813e f757 593c e4e3 153d 96bf 953c
000000b0: ea12 423e a5d1 78be a0f7 0fbf a210 23bf
000000c0: dbbe 1dbf c3fc 09be 8b4d 0a3a c7d6 0bbe
000000d0: 9a04 b93e ec35 473d 4fa4 17be a53b df3d
000000e0: cdcc ae3e 3569 b23e 8332 e63e 8542 a43e
000000f0: 00b2 923e eefa 9b3e 1889 0fbe b20d 173e
00000100: 53ba 783e e72e 2e3d b169 f0be bb1c 033e
00000110: 1882 603d 66e1 d83b 7851 8cbf 7ecc d3bf
00000120: 9c9c 19be 6f15 d43d 51f3 7fbf ab1f ccbe
00000130: 0c41 813f 00f9 e8be b021 e5be 404c 8c3c
00000140: d971 71be de64 563e ee71 50be 7173 353d
00000150: 13a7 273e d620 39bd 39cb f5be b5e0 25be
00000160: e06e c1bd 24de 77be 0aac e43d 5f43 b7bd
00000170: aea4 3b3d 8dda 93be 70f1 6abd 45ca 073e
00000180: d653 073c 7fef 89bd 0851 003e f5da 8cbe
00000190: 5e27 a63d 7982 b03d ef15 163d f596 e53d
000001a0: e19d c93d 73ab 9f3d 9794 22be 415e bd3c
000001b0: c9e3 c4ba 2dae 023e c583 3e3d 0aa4 523d
000001c0: 441a a4bc a66b e2bc 8b47 2abd 2074 f5bc
000001d0: 4e01 723e a1ec 8d3e e179 1cbf 865b 0ebb
000001e0: 4ed9 03bf d9bd 8abd f4d8 cabe 12ff 463d
000001f0: e30a ea3c 078c 013e b765 f7bd bb2f 28be
00000200: 8c0e 49be 91cc bbbe d948 b5be ae54 033e
00000210: 657e 753e ff06 ac3c 20fc c63d 961b 693b
00000220: 85bf cdbd b2a4 4f3d bfc7 4a3c e16a a63d
00000230: f34f 16bf 7704 e93e 5aa0 163f 49d2 5f3f
00000240: 11a8 29bd ff1e b8bf 0c8c af3f 24ca fa3e
00000250: f609 acbe bb3a 803d efd2 5d3e 0981 fdbc
00000260: 5f4c 083f 5ef7 cf3d 23c2 a4bd 3626 24bf
00000270: 0037 a6be 8f80 8fbe cc19 3d3d 237c 7ebc
00000280: 8d31 0fbe f2fc 9d3e 1618 943d 3d2a 2e3f
00000290: b26f e43e 5b46 27bc 8920 98bd b3dc 9d3d
000002a0: 9cdc c6be c981 5e3e f8f8 213e 47c4 083e
000002b0: 0dd0 e83d cc43 85be 7ad6 e5bd 825c c03e
000002c0: ff63 b93d 3d19 293e 7e13 853e 2c0d 023f
000002d0: dbd7 9c3d c1ff 083f 4924 06bd f7f1 78bd
000002e0: b60f ae3d fae4 213e d710 3240 68ed 3f3f
000002f0: f520 643f 7ff7 aa3e 31f1 473f 9d3c a73e
00000300: 03b8 a43f 991d 0ebd 6216 033f 1ab1 193e
00000310: bc07 73be 6551 9cbe b674 16c0 8f67 91be
00000320: c2d9 27bf d8fb 18bd 5a9f 123e e9fe 293b
00000330: 62c3 41bf e8a4 633e 026f 0fbe b432 3abe
00000340: 2259 62be 49fc dc3c c774 1f3f 20a4 4cbe
00000350: bd92 c83e a459 d63f 080f f13e 0332 063e
00000360: 193a 1b40 e860 c8bf 0129 13bf b3a6 1cbf
00000370: 6262 e93d dd07 193e 74fb 87be 4475 1abf
00000380: 2c56 283f afbf 6a3e 164f 6abf 565d 96be
00000390: 9817 f53d 07d4 c73e 4026 4cbf 6a53 e4bd
000003a0: b631 06bf 65c7 d73e cd20 49be 3c86 05be
000003b0: aa4e a3bb caaa fc3d 1add bdbd 2b03 98bd
000003c0: eb6f 96be 9953 0fbf 9e1e 80be a8cd 9b3e
000003d0: b080 9bbe dace 673e 7a95 debd 96c8 063e
000003e0: 309a a63d 3987 253f 184b 0b3f 1c46 c5be
000003f0: 00b4 ae3c 103e 60bd 2101 28bf f12d 6dbe

critic.0.bias f4 [64]
-0.32461244 -0.1748736 0.44472742 0.3845518 0.4424675 -0.46712166 0.72605485 0.2533875
-0.584747 0.6312709 -0.47069412 0.0636507 -0.8075151 -0.3491296 -0.24729677 0.35451165
-0.60337585 0.19250908 -0.32071865 -0.3574703 -0.64167905 -0.12358296 0.365414 0.25029817
-0.009782307 -0.11088943 -0.14278774 0.20404904 -0.21983409 0.669565 -0.20994265 0.20616
0.017228732 0.11334201 0.49970093 0.58605945 0.50067294 0.21109888 -0.3947435 -0.2175308
0.4768085 -0.33415532 -0.47598526 -0.46641386 0.15833013 -0.8699928 -0.0680496 -0.12343835
-0.66077435 -0.5755002 0.14305024 -0.26876462 -0.7115304 0.22754407 -0.32584524 -0.07943385
0.5101181 0.57182515 -0.00090435334 -0.32923675 -0.4273809 0.057099726 -0.32530734 -0.59440523
00000000: 9a33 a6be 1112 33be 50b3 e33e f9e3 c43e
00000010: 1a8b e23e 922a efbe bbde 393f 02bc 813e
00000020: fbb1 15bf f89a 213f d2fe f0be 4c5b 823d
00000030: 4fb9 4ebf 1dc1 b2be 5d3b 7dbe 8d82 b53e
00000040: d776 1abf 1a21 453e 3c35 a4be 5906 b7be
00000050: 1445 24bf 1019 fdbd 8b17 bb3e 1527 803e
00000060: f845 20bc ff19 e3bd f336 12be 3bf2 503e
00000070: 301c 61be 9d68 2b3f 35fb 56be 9b1b 533e
00000080: 4523 8d3c db1f e83d cdd8 ff3e fe07 163f
00000090: 1a2c 003f 4e2a 583e d21b cabe 65c0 5ebe
000000a0: 3e20 f43e 6816 abbe 57b4 f3be cccd eebe
000000b0: 4b21 223e d9b7 5ebf 975d 8bbd 3fcd fcbd
000000c0: 8228 29bf fb53 13bf c37b 123e 849b 89be
000000d0: db26 36bf 5001 693e 30d5 a6be 37ae a2bd
000000e0: 1a97 023f 2263 123f 2012 6dba b891 a8be
000000f0: abd1 dabe 67e1 693d af8e a6be f12a 18bf

critic.2.weight f4 [64, 64]
-0.074467465 0.39986405 -0.0070325965 -0.17820352 0.27255163 0.2235627 0.03864157 0.110523514
-0.34709314 0.33968085 -0.13805051 -0.006523993 0.3384593 0.41771322 -0.25701603 0.0151435
-0.3892608 0.061639618 -0.6475021 -0.50899166 0.031793475 -0.5704033 -0.70454544 -0.29574314
0.3415296 0.06397121 -0.1867884 0.36531585 -0.18497865 -0.1726037 0.19596228 -0.6373133
0.12338246 0.3783715 0.07446846 -0.2349139 -0.073070794 0.03285821 -0.4078327 -0.35649365
0.34160292 -0.2610578 -0.3498936 -0.25785738 -0.2296426 1.4995781 -0.18031517 0.2488682
0.04644937 0.8968873 0.03060378 0.13013756 0.0053757643 0.64660054 -0.36977336 0.08872301
0.15590756 -0.85852545 0.15865749 0.29288486 -0.44307774 -0.08283168 0.3202129 0.15319635
0.8844603 -0.7421293 -0.013564763 0.3476694 -0.008715387 0.38789955 0.44833842 0.17764828
-0.87069386 0.069078565 0.26338282 0.037429623 -0.17516734 0.27577186 -0.08113409 -0.003786664
-0.26505908 0.5236926 0.36424 -0.48875296 -0.24264237 -0.38598257 0.49805924 -0.31897897
0.7804671 1.8699503 -0.6465922 0.02960952 -1.1095791 0.44437096 0.108070634 0.64285934
0.78261596 -0.49118653 1.0568631 -0.4795213 1.0531621 0.10371221 -0.572272 0.7522219
0.8316303 -0.16476488 -0.3838797 0.46660465 0.74028015 0.08667257 0.494257 0.21051416
0.0638054 0.64002156 -0.4785666 0.58631873 0.17228545 0.071556136 -0.23078364 -0.114927374
0.04113921 0.22025038 -0.6609274 -0.9118833 -0.2329201 0.13719346 0.5414106 -1.543221
0.34335908 0.8888571 -0.16799745 -0.54165405 -0.64262754 0.47385716 -1.2283734 0.048264097
0.28255048 -0.45740288 -0.28234494 -0.32737166 -0.41624442 1.2572693 0.7535071 0.06349002
-0.09939099 0.14695263 0.24591525 -0.38775247 -0.80414104 0.5974323 -0.88508075 -0.24615705
-0.49810013 0.6756783 0.7858227 0.8311982 -0.17478709 -0.3903913 0.029639265 -0.9532219
-0.35998955 -0.20369574 -0.21449877 -0.3912919 0.045741074 0.40424472 0.21856375 -0.5496923
-0.33728045 0.5108986 0.52599436 -0.4071378 -0.18328442 0.14872445 -0.55126345 0.3657885
0.24296457 0.2333817 0.60276186 0.15991743 -0.46003112 0.016928764 0.49336573 -0.09423717
-0.44455707 -0.4218243 -0.35934177 0.4794558 -0.5692748 0.14125109 -0.59402686 0.77919084
0.41215962 0.1446007 -0.35896513 -0.24458921 -0.18809119 0.5088273 0.11617561 -0.18368328
-0.029721575 -0.24829258 -0.035160564 -0.23300323 -0.0120942285 0.8916409 0.1901629 -0.04857611
-0.49659 0.0693595 -0.04913141 0.22272812 0.047244743 0.13118392 -0.35462293 -0.16874316
-0.4494819 -0.15460216 0.017329209 -0.3490146 0.12784198 0.22897328 0.014570382 0.050107665
-0.13265474 -0.22061022 0.12569068 -0.15092203 0.25711134 -0.025311425 -0.117562346 -0.13424113
-0.34272423 0.44022894 0.5722946 0.5262471 -0.27366933 1.2972286 -0.071199425 -0.027058246
0.28876692 0.6240434 0.12559618 0.19573998 -0.25569698 -0.36297798 0.029998664 0.38309753
-0.14757732 -0.5397005 0.41838053 -0.6544864 0.51063234 -0.2654799 0.421647 -0.24796173
00000000: 6682 98bd fbba cc3e b271 e6bb fc7a 36be
00000010: e38b 8b3e 9fed 643e 9f46 1e3d 275a e23d
00000020: 31b6 b1be a6ea ad3e 1d5d 0dbe 38c7 d5bb
00000030: 8a4a ad3e 82de d53e 9b97 83be 711c 783c
00000040: 314d c7be d379 7c3d b3c2 25bf 474d 02bf
00000050: e039 023d f305 12bf 175d 34bf a56b 97be
00000060: f8dc ae3e 5603 833d 7545 3fbe ae0a bb3e
00000070: 0b6b 3dbe 06bf 30be 56aa 483e f726 23bf
00000080: f1af fc3d e9b9 c13e ec82 983d 458d 70be
00000090: 24a6 95bd 5596 063d 73cf d0be 5686 b6be
000000a0: 94e6 ae3e 5ea9 85be 4125 b3be e205 84be
000000b0: 6e27 6bbe 2df2 bf3f 8aa4 38be 4ed7 7e3e
000000c0: b241 3e3d 689a 653f c7b4 fa3c c842 053e
000000d0: 2e27 b03b 9d87 253f ef52 bdbe 69b4 b53d
000000e0: 3ba6 1f3e 53c8 5bbf 1c77 223e 01f5 953e
000000f0: 16db e2be a8a3 a9bd f2f2 a33e 81df 1c3e
00000100: fd6b 623f 30fc 3dbf bd3e 5ebc b901 b23e
00000110: fcca 0ebc c59a c63e 9d8c e53e 6ee9 353e
00000120: cbe5 5ebf 1079 8d3d 1dda 863e ce4f 193d
00000130: 115f 33be f831 8d3e a129 a6bd ae29 78bb
00000140: d3b5 87be b810 063f aa7d ba3e d43d fabe
00000150: 3e77 78be 829f c5be 9f01 ff3e 3651 a3be
00000160: b1cc 473f 885a ef3f 1187 25bf aa8f f23c
00000170: b006 8ebf 9784 e33e 2354 dd3d 6e92 243f
00000180: 8559 483f cd7c fbbe 4a47 873f d183 f5be
00000190: 04ce 863f 1167 d43d 6b80 12bf 9d91 403f
000001a0: b9e5 543f 20b8 28be e18b c4be cee6 ee3e
000001b0: 0083 3d3f 6381 b13d 410f fd3e 0691 573e
000001c0: 68ac 823d 74d8 233f ae06 f5be fc18 163f
000001d0: 996b 303e 068c 923d 8c52 6cbe 0b5f ebbd
000001e0: 9781 283d 5189 613e 8a32 29bf 2f71 69bf
000001f0: 9b82 6ebe 717c 0c3e e399 0a3f 4488 c5bf
00000200: c3cc af3e 248c 633f 8607 2cbe d7a9 0abf
00000210: 3d83 24bf 689d f23e 573b 9dbf 93b0 453d
00000220: 75aa 903e b630 eabe 848f 90be 429d a7be
00000230: fd1d d5be 33ee a03f d7e5 403f 0e07 823d
00000240: 818d cbbd c07a 163e 35d1 7b3e 7e87 c6be
00000250: 30dc 4dbf 53f1 183f a794 62bf 9810 7cbe
00000260: fb06 ffbe 41f9 2c3f ad2b 493f 68c9 543f
00000270: 63fb 32be 5ee1 c7be 0bce f23c 5a06 74bf
00000280: 8d50 b8be 9e95 50be 91a5 5bbe 6957 c8be
00000290: fe5a 3b3d 2af9 ce3e 2dcf 5f3e a2b8 0cbf
000002a0: 06b0 acbe 40ca 023f 91a7 063f 5e74 d0be
000002b0: e9ae 3bbe 394b 183e 9a1f 0dbf a148 bb3e
000002c0: b4cb 783e 9dfb 6e3e 9a4e 1a3f 65c1 233e
000002d0: 3389 ebbe 31ae 8a3c 6f9a fc3e 6bff c0bd
000002e0: fc9c e3be 5bf9 d7be a5fb b7be 3b7b f53e
000002f0: febb 11bf 20a4 103e 2512 18bf 0d79 473f
00000300: 9606 d33e 3512 143e 47ca b7be 9875 7abe
00000310: fa9a 40be 8242 023f 7aed ed3d 7817 3cbe
00000320: a97a f3bc 6940 7ebe 8604 10bd 6698 6ebe
00000330: df26 46bc 9442 643f 10ba 423e bef7 46bd
00000340: 0b41 febe 5b0c 8e3d 043e 49bd d712 643e
00000350: b483 413d 1455 063e 2391 b5be 02cb 2cbe
00000360: 7e22 e6be 0750 1ebe fcf5 8d3c 0bb2 b2be
00000370: 02e9 023e f977 6a3e 9db8 6e3c b23d 4d3d
00000380: a5d6 07be a5e7 61be 0fb5 003e 4e8b 1abe
00000390: 19a4 833e e859 cfbc 87c4 f0bd 8276 09be
000003a0: 8d79 afbe b065 e13e e681 123f 21b8 063f
000003b0: 631e 8cbe 960b a63f 01d1 91bd 41a9 ddbc
000003c0: 42d9 933e 4fc1 1f3f 499c 003e 1070 483e
000003d0: b7ea 82be 40d8 b9be c2bf f53c 5c25 c43e
000003e0: 821e 17be d029 0abf f935 d63e 6c8c 27bf
000003f0: cdb8 023f fbec 87be 1ee2 d73e aee9 7dbe

critic.2.bias f4 [64]
-0.14216934 0.12241375 0.23271792 -0.030866526 0.56739104 -0.0044566016 0.17098357 -0.14683804
-0.32446888 0.17820784 0.15610054 0.7287908 -0.41099536 -0.05073255 0.0674436 0.05530786
0.24305598 0.33032125 0.114447735 0.34110838 -0.12425778 -0.09455038 0.42313215 -0.11351103
-0.008354327 0.1291069 0.6419691 -0.21813506 -0.062340476 -0.06705483 -0.4082683 0.12683417
0.21425393 0.5215979 0.32525593 -0.13516107 -0.22092354 0.1322147 0.25178978 -0.3639082
-0.38770142 0.15831268 0.065027826 -0.3942875 0.40525457 0.06919849 -0.44029495 -0.41968593
-0.085061885 -0.102524735 -0.0020436388 -0.2101612 0.03776944 -0.28470436 0.25787026 0.0592011
-0.6240298 -0.2407306 0.20054832 0.013951062 0.25880072 0.117347255 0.42716086 -0.719225
00000000: d794 11be 0fb4 fa3d 9b4d 6e3e ccdb fcbc
00000010: 8a40 113f af08 92bb 5116 2f3e b65c 16be
00000020: c920 a6be 1e7c 363e d2d8 1f3e 0992 3a3f
00000030: fc6d d2be efcc 4fbd df1f 8a3d 7f8a 623d
00000040: abe3 783e de1f a93e 9363 ea3d c2a5 ae3e
00000050: dd7a febd a1a3 c1bd c7a4 d83e 7978 e8bd
00000060: 96e0 08bc 9934 043e 1658 243f cc5e 5fbe
00000070: ba58 7fbd 0b54 89bd 8b08 d1be d1e0 013e
00000080: 6265 5b3e 7187 053f f287 a63e aa67 0abe
00000090: c839 62be 4a63 073e 97ea 803e 2d52 babe
000000a0: cd80 c6be b81c 223e 4f2d 853d 0de0 c9be
000000b0: 877d cf3e f0b7 8d3d 576e e1be 13e1 d6be
000000c0: ed34 aebd 7df8 d1bd 92ee 05bb 7f34 57be
000000d0: 21b4 1a3d c5c4 91be 9207 843e da7c 723d
000000e0: 6bc0 1fbf 1582 76be 8a5c 4d3e ff92 643c
000000f0: 8781 843e c253 f03d d4b4 da3e 211f 38bf

critic.4.weight f4 [1, 64]
-1.6829352 1.981941 -1.7763727 -2.2687368 2.3228426 1.8722315 -1.5957496 -1.7768221
-2.1069038 1.6607958 2.1047845 2.3342032 -2.1847446 -1.9094366 -1.8924268 -2.2801883
-2.0788841 2.1275861 1.4302696 -1.6830328 1.7824337 1.6605935 2.2318163 1.4885885
1.8456863 1.7295287 2.3985457 2.34001 1.9765913 -1.9427416 -2.0140963 -1.9250841
1.8786297 2.222435 -2.2303002 -2.152413 -2.1572 1.7256877 -2.1523266 1.8097149
-1.8275214 1.7347248 -2.2713387 -1.9603851 -1.8834306 -2.3739734 -1.5463464 1.5057311
1.4040865 2.5472252 1.3929987 -1.9284183 -1.8675756 1.722317 -2.3384752 -2.2807016
-2.362834 -2.2025845 -1.8589234 2.465946 -1.6212649 -1.0735563 2.3017375 -2.3393812
00000000: 6c6a d7bf 3eb0 fd3f 2e60 e3bf fc32 11c0
00000010: 74a9 1440 48a5 ef3f 8641 ccbf e86e e3bf
00000020: 83d7 06c0 f594 d43f cab4 0640 9663 1540
00000030: dbd2 0bc0 6b68 f4bf 0b3b f2bf 9bee 11c0
00000040: 700c 05c0 5f2a 0840 1313 b73f 9e6d d7bf
00000050: ca26 e43f 548e d43f 14d6 0e40 118a be3f
00000060: 733f ec3f 3261 dd3f c681 1940 b9c2 1540
00000070: f200 fd3f c2ab f8bf f4e6 00c0 2869 f6bf
00000080: f076 f03f 603c 0e40 3dbd 0ec0 22c1 09c0
00000090: 910f 0ac0 56e3 dc3f b8bf 09c0 bda4 e73f
000000a0: 39ec e9bf 760b de3f 9d5d 11c0 e6ed fabf
000000b0: 4114 f1bf 2eef 17c0 aeee c5bf ccbb c03f
000000c0: 1bb9 b33f bd05 2340 c84d b23f 69d6 f6bf
000000d0: b80c efbf e274 dc3f 94a9 15c0 04f7 11c0
000000e0: ac38 17c0 25f7 0cc0 34f1 edbf 0fd2 1d40
000000f0: 9c85 cfbf 4b6a 89bf ab4f 1340 6cb8 15c0
